…
            "Reducing the number of VLM layers to 16 ...\n"
          ]
        },
        {
          "output_type": "execute_result",
          "data": {
            "text/plain": [
              "SmolVLAPolicy(\n",
              "  (model): VLAFlowMatching(\n",
              "    (vlm_with_expert): SmolVLMWithExpertModel(\n",
              "      (vlm): SmolVLMForConditionalGeneration(\n",
              "        (model): SmolVLMModel(\n",
              "          (vision_model): SmolVLMVisionTransformer(\n",
              "            (embeddings): SmolVLMVisionEmbeddings(\n",
              "              (patch_embedding): Conv2d(3, 768, kernel_size=(16, 16), stride=(16, 16), padding=valid)\n",
              "              (position_embedding): Embedding(1024, 768)\n",
              "            )\n",
              "            (encoder): SmolVLMEncoder(\n",
              "              (layers): ModuleList(\n",
              "                (0-11): 12 x SmolVLMEncoderLayer(\n",
              "                  (self_attn): SmolVLMVisionAttention(\n",
              "                    (k_proj): Linear(in_features=768, out_features=768, bias=True)\n",
              "                    (v_proj): Linear(in_features=768, out_features=768, bias=True)\n",
              "                    (q_proj): Linear(in_features=768, out_features=768, bias=True)\n",
              "                    (out_proj): Linear(in_features=768, out_features=768, bias=True)\n",
              "                  )\n",
              "                  (layer_norm1): LayerNorm((768,), eps=1e-06, elementwise_affine=True)\n",
              "                  (mlp): SmolVLMVisionMLP(\n",
              "                    (activation_fn): GELUTanh()\n",
              "                    (fc1): Linear(in_features=768, out_features=3072, bias=True)\n",
              "                    (fc2): Linear(in_features=3072, out_features=768, bias=True)\n",
              "                  )\n",
              "                  (layer_norm2): LayerNorm((768,), eps=1e-06, elementwise_affine=True)\n",
              "                )\n",
              "              )\n",
              "            )\n",
              "            (post_layernorm): LayerNorm((768,), eps=1e-06, elementwise_affine=True)\n",
              "          )\n",
              "          (connector): SmolVLMConnector(\n",
              "            (modality_projection): SmolVLMSimpleMLP(\n",
              "              (proj): Linear(in_features=12288, out_features=960, bias=False)\n",
              "            )\n",
              "          )\n",
              "          (text_model): LlamaModel(\n",
              "            (embed_tokens): Embedding(49280, 960, padding_idx=2)\n",
              "            (layers): ModuleList(\n",
              "              (0-15): 16 x LlamaDecoderLayer(\n",
              "                (self_attn): LlamaAttention(\n",
              "                  (q_proj): Linear(in_features=960, out_features=960, bias=False)\n",
              "                  (k_proj): Linear(in_features=960, out_features=320, bias=False)\n",
              "                  (v_proj): Linear(in_features=960, out_features=320, bias=False)\n",
              "                  (o_proj): Linear(in_features=960, out_features=960, bias=False)\n",
              "                )\n",
              "                (mlp): LlamaMLP(\n",
              "                  (gate_proj): Linear(in_features=960, out_features=2560, bias=False)\n",
              "                  (up_proj): Linear(in_features=960, out_features=2560, bias=False)\n",
              "                  (down_proj): Linear(in_features=2560, out_features=960, bias=False)\n",
              "                  (act_fn): SiLUActivation()\n",
              "                )\n",
              "                (input_layernorm): LlamaRMSNorm((960,), eps=1e-05)\n",
              "                (post_attention_layernorm): LlamaRMSNorm((960,), eps=1e-05)\n",
              "              )\n",
              "            )\n",
              "            (norm): LlamaRMSNorm((960,), eps=1e-05)\n",
              "            (rotary_emb): LlamaRotaryEmbedding()\n",
              "          )\n",
              "        )\n",
              "        (lm_head): Linear(in_features=960, out_features=49280, bias=False)\n",
              "      )\n",
              "      (lm_expert): LlamaModel(\n",
              "        (embed_tokens): None\n",
              "        (layers): ModuleList(\n",
              "          (0): LlamaDecoderLayer(\n",
              "            (self_attn): LlamaAttention(\n",
              "              (q_proj): Linear(in_features=720, out_features=960, bias=False)\n",
              "              (k_proj): Linear(in_features=720, out_features=320, bias=False)\n",
              "              (v_proj): Linear(in_features=720, out_features=320, bias=False)\n",
              "              (o_proj): Linear(in_features=960, out_features=720, bias=False)\n",
              "            )\n",
              "            (mlp): LlamaMLP(\n",
              "              (gate_proj): Linear(in_features=720, out_features=2048, bias=False)\n",
              "              (up_proj): Linear(in_features=720, out_features=2048, bias=False)\n",
              "              (down_proj): Linear(in_features=2048, out_features=720, bias=False)\n",
              "              (act_fn): SiLUActivation()\n",
              "            )\n",
              "            (input_layernorm): LlamaRMSNorm((720,), eps=1e-05)\n",
              "            (post_attention_layernorm): LlamaRMSNorm((720,), eps=1e-05)\n",
              "          )\n",
              "          (1): LlamaDecoderLayer(\n",
              "            (self_attn): LlamaAttention(\n",
              "              (q_proj): Linear(in_features=720, out_features=960, bias=False)\n",
              "              (k_proj): Linear(in_features=320, out_features=320, bias=False)\n",
              "              (v_proj): Linear(in_features=320, out_features=320, bias=False)\n",
              "              (o_proj): Linear(in_features=960, out_features=720, bias=False)\n",
              "            )\n",
              "            (mlp): LlamaMLP(\n",
              "              (gate_proj): Linear(in_features=720, out_features=2048, bias=False)\n",
              "              (up_proj): Linear(in_features=720, out_features=2048, bias=False)\n",
              "              (down_proj): Linear(in_features=2048, out_features=720, bias=False)\n",
              "              (act_fn): SiLUActivation()\n",
              "            )\n",
              "            (input_layernorm): LlamaRMSNorm((720,), eps=1e-05)\n",
              "            (post_attention_layernorm): LlamaRMSNorm((720,), eps=1e-05)\n",
              "          )\n",
              "          (2): LlamaDecoderLayer(\n",
              "            (self_attn): LlamaAttention(\n",
              "              (q_proj): Linear(in_features=720, out_features=960, bias=False)\n",
              "              (k_proj): Linear(in_features=720, out_features=320, bias=False)\n",
              "              (v_proj): Linear(in_features=720, out_features=320, bias=False)\n",
              "              (o_proj): Linear(in_features=960, out_features=720, bias=False)\n",
              "            )\n",
              "            (mlp): LlamaMLP(\n",
              "              (gate_proj): Linear(in_features=720, out_features=2048, bias=False)\n",
              "              (up_proj): Linear(in_features=720, out_features=2048, bias=False)\n",
              "              (down_proj): Linear(in_features=2048, out_features=720, bias=False)\n",
              "              (act_fn): SiLUActivation()\n",
              "            )\n",
              "            (input_layernorm): LlamaRMSNorm((720,), eps=1e-05)\n",
              "            (post_attention_layernorm): LlamaRMSNorm((720,), eps=1e-05)\n",
              "          )\n",
              "          (3): LlamaDecoderLayer(\n",
              "            (self_attn): LlamaAttention(\n",
              "              (q_proj): Linear(in_features=720, out_features=960, bias=False)\n",
              "              (k_proj): Linear(in_features=320, out_features=320, bias=False)\n",
              "              (v_proj): Linear(in_features=320, out_features=320, bias=False)\n",
              "              (o_proj): Linear(in_features=960, out_features=720, bias=False)\n",
              "            )\n",
              "            (mlp): LlamaMLP(\n",
              "              (gate_proj): Linear(in_features=720, out_features=2048, bias=False)\n",
              "              (up_proj): Linear(in_features=720, out_features=2048, bias=False)\n",
              "              (down_proj): Linear(in_features=2048, out_features=720, bias=False)\n",
              "              (act_fn): SiLUActivation()\n",
              "            )\n",
              "            (input_layernorm): LlamaRMSNorm((720,), eps=1e-05)\n",
              "            (post_attention_layernorm): LlamaRMSNorm((720,), eps=1e-05)\n",
              "          )\n",
              "          (4): LlamaDecoderLayer(\n",
              "            (self_attn): LlamaAttention(\n",
              "              (q_proj): Linear(in_features=720, out_features=960, bias=False)\n",
              "              (k_proj): Linear(in_features=720, out_features=320, bias=False)\n",
              "              (v_proj): Linear(in_features=720, out_features=320, bias=False)\n",
              "              (o_proj): Linear(in_features=960, out_features=720, bias=False)\n",
              "            )\n",
              "            (mlp): LlamaMLP(\n",
              "              (gate_proj): Linear(in_features=720, out_features=2048, bias=False)\n",
              "              (up_proj): Linear(in_features=720, out_features=2048, bias=False)\n",
              "              (down_proj): Linear(in_features=2048, out_features=720, bias=False)\n",
              "              (act_fn): SiLUActivation()\n",
              "            )\n",
              "            (input_layernorm): LlamaRMSNorm((720,), eps=1e-05)\n",
              "            (post_attention_layernorm): LlamaRMSNorm((720,), eps=1e-05)\n",
              "          )\n",
              "          (5): LlamaDecoderLayer(\n",
              "            (self_attn): LlamaAttention(\n",
              "              (q_proj): Linear(in_features=720, out_features=960, bias=False)\n",
              "              (k_proj): Linear(in_features=320, out_features=320, bias=False)\n",
              "              (v_proj): Linear(in_features=320, out_features=320, bias=False)\n",
              "              (o_proj): Linear(in_features=960, out_features=720, bias=False)\n",
              "            )\n",
              "            (mlp): LlamaMLP(\n",
              "              (gate_proj): Linear(in_features=720, out_features=2048, bias=False)\n",
              "              (up_proj): Linear(in_features=720, out_features=2048, bias=False)\n",
              "              (down_proj): Linear(in_features=2048, out_features=720, bias=False)\n",
              "              (act_fn): SiLUActivation()\n",
              "            )\n",
              "            (input_layernorm): LlamaRMSNorm((720,), eps=1e-05)\n",
              "            (post_attention_layernorm): LlamaRMSNorm((720,), eps=1e-05)\n",
              "          )\n",
              "          (6): LlamaDecoderLayer(\n",
              "            (self_attn): LlamaAttention(\n",
              "              (q_proj): Linear(in_features=720, out_features=960, bias=False)\n",
              "              (k_proj): Linear(in_features=720, out_features=320, bias=False)\n",
              "              (v_proj): Linear(in_features=720, out_features=320, bias=False)\n",
              "              (o_proj): Linear(in_features=960, out_features=720, bias=False)\n",
              "            )\n",
              "            (mlp): LlamaMLP(\n",
              "              (gate_proj): Linear(in_features=720, out_features=2048, bias=False)\n",
              "              (up_proj): Linear(in_features=720, out_features=2048, bias=False)\n",
              "              (down_proj): Linear(in_features=2048, out_features=720, bias=False)\n",
              "              (act_fn): SiLUActivation()\n",
              "            )\n",
              "            (input_layernorm): LlamaRMSNorm((720,), eps=1e-05)\n",
              "            (post_attention_layernorm): LlamaRMSNorm((720,), eps=1e-05)\n",
              "          )\n",
              "          (7): LlamaDecoderLayer(\n",
              "            (self_attn): LlamaAttention(\n",
              "              (q_proj): Linear(in_features=720, out_features=960, bias=False)\n",
              "              (k_proj): Linear(in_features=320, out_features=320, bias=False)\n",
              "              (v_proj): Linear(in_features=320, out_features=320, bias=False)\n",
              "              (o_proj): Linear(in_features=960, out_features=720, bias=False)\n",
              "            )\n",
              "            (mlp): LlamaMLP(\n",
              "              (gate_proj): Linear(in_features=720, out_features=2048, bias=False)\n",
              "              (up_proj): Linear(in_features=720, out_features=2048, bias=False)\n",
              "              (down_proj): Linear(in_features=2048, out_features=720, bias=False)\n",
              "              (act_fn): SiLUActivation()\n",
              "            )\n",
              "            (input_layernorm): LlamaRMSNorm((720,), eps=1e-05)\n",
              "            (post_attention_layernorm): LlamaRMSNorm((720,), eps=1e-05)\n",
              "          )\n",
              "          (8): LlamaDecoderLayer(\n",
              "            (self_attn): LlamaAttention(\n",
              "              (q_proj): Linear(in_features=720, out_features=960, bias=False)\n",
              "              (k_proj): Linear(in_features=720, out_features=320, bias=False)\n",
              "              (v_proj): Linear(in_features=720, out_features=320, bias=False)\n",
              "              (o_proj): Linear(in_features=960, out_features=720, bias=False)\n",
              "            )\n",
              "            (mlp): LlamaMLP(\n",
              "              (gate_proj): Linear(in_features=720, out_features=2048, bias=False)\n",
              "              (up_proj): Linear(in_features=720, out_features=2048, bias=False)\n",
              "              (down_proj): Linear(in_features=2048, out_features=720, bias=False)\n",
              "              (act_fn): SiLUActivation()\n",
              "            )\n",
              "            (input_layernorm): LlamaRMSNorm((720,), eps=1e-05)\n",
              "            (post_attention_layernorm): LlamaRMSNorm((720,), eps=1e-05)\n",
              "          )\n",
              "          (9): LlamaDecoderLayer(\n",
              "            (self_attn): LlamaAttention(\n",
              "              (q_proj): Linear(in_features=720, out_features=960, bias=False)\n",
              "              (k_proj): Linear(in_features=320, out_features=320, bias=False)\n",
              "              (v_proj): Linear(in_features=320, out_features=320, bias=False)\n",
              "              (o_proj): Linear(in_features=960, out_features=720, bias=False)\n",
              "            )\n",
              "            (mlp): LlamaMLP(\n",
              "              (gate_proj): Linear(in_features=720, out_features=2048, bias=False)\n",
              "              (up_proj): Linear(in_features=720, out_features=2048, bias=False)\n",
              "              (down_proj): Linear(in_features=2048, out_features=720, bias=False)\n",
              "              (act_fn): SiLUActivation()\n",
              "            )\n",
              "            (input_layernorm): LlamaRMSNorm((720,), eps=1e-05)\n",
              "            (post_attention_layernorm): LlamaRMSNorm((720,), eps=1e-05)\n",
              "          )\n",
              "          (10): LlamaDecoderLayer(\n",
              "            (self_attn): LlamaAttention(\n",
              "              (q_proj): Linear(in_features=720, out_features=960, bias=False)\n",
              "              (k_proj): Linear(in_features=720, out_features=320, bias=False)\n",
              "              (v_proj): Linear(in_features=720, out_features=320, bias=False)\n",
              "              (o_proj): Linear(in_features=960, out_features=720, bias=False)\n",
              "            )\n",
              "            (mlp): LlamaMLP(\n",
              "              (gate_proj): Linear(in_features=720, out_features=2048, bias=False)\n",
              "              (up_proj): Linear(in_features=720, out_features=2048, bias=False)\n",
              "              (down_proj): Linear(in_features=2048, out_features=720, bias=False)\n",
              "              (act_fn): SiLUActivation()\n",
              "            )\n",
              "            (input_layernorm): LlamaRMSNorm((720,), eps=1e-05)\n",
              "            (post_attention_layernorm): LlamaRMSNorm((720,), eps=1e-05)\n",
              "          )\n",
              "          (11): LlamaDecoderLayer(\n",
              "            (self_attn): LlamaAttention(\n",
              "              (q_proj): Linear(in_features=720, out_features=960, bias=False)\n",
              "              (k_proj): Linear(in_features=320, out_features=320, bias=False)\n",
              "              (v_proj): Linear(in_features=320, out_features=320, bias=False)\n",
              "              (o_proj): Linear(in_features=960, out_features=720, bias=False)\n",
              "            )\n",
              "            (mlp): LlamaMLP(\n",
              "              (gate_proj): Linear(in_features=720, out_features=2048, bias=False)\n",
              "              (up_proj): Linear(in_features=720, out_features=2048, bias=False)\n",
              "              (down_proj): Linear(in_features=2048, out_features=720, bias=False)\n",
              "              (act_fn): SiLUActivation()\n",
              "            )\n",
              "            (input_layernorm): LlamaRMSNorm((720,), eps=1e-05)\n",
              "            (post_attention_layernorm): LlamaRMSNorm((720,), eps=1e-05)\n",
              "          )\n",
              "          (12): LlamaDecoderLayer(\n",
              "            (self_attn): LlamaAttention(\n",
              "              (q_proj): Linear(in_features=720, out_features=960, bias=False)\n",
              "              (k_proj): Linear(in_features=720, out_features=320, bias=False)\n",
              "              (v_proj): Linear(in_features=720, out_features=320, bias=False)\n",
              "              (o_proj): Linear(in_features=960, out_features=720, bias=False)\n",
              "            )\n",
              "            (mlp): LlamaMLP(\n",
              "              (gate_proj): Linear(in_features=720, out_features=2048, bias=False)\n",
              "              (up_proj): Linear(in_features=720, out_features=2048, bias=False)\n",
              "              (down_proj): Linear(in_features=2048, out_features=720, bias=False)\n",
              "              (act_fn): SiLUActivation()\n",
              "            )\n",
              "            (input_layernorm): LlamaRMSNorm((720,), eps=1e-05)\n",
              "            (post_attention_layernorm): LlamaRMSNorm((720,), eps=1e-05)\n",
              "          )\n",
              "          (13): LlamaDecoderLayer(\n",
              "            (self_attn): LlamaAttention(\n",
              "              (q_proj): Linear(in_features=720, out_features=960, bias=False)\n",
              "              (k_proj): Linear(in_features=320, out_features=320, bias=False)\n",
              "              (v_proj): Linear(in_features=320, out_features=320, bias=False)\n",
              "              (o_proj): Linear(in_features=960, out_features=720, bias=False)\n",
              "            )\n",
              "            (mlp): LlamaMLP(\n",
              "              (gate_proj): Linear(in_features=720, out_features=2048, bias=False)\n",
              "              (up_proj): Linear(in_features=720, out_features=2048, bias=False)\n",
              "              (down_proj): Linear(in_features=2048, out_features=720, bias=False)\n",
              "              (act_fn): SiLUActivation()\n",
              "            )\n",
              "            (input_layernorm): LlamaRMSNorm((720,), eps=1e-05)\n",
              "            (post_attention_layernorm): LlamaRMSNorm((720,), eps=1e-05)\n",
              "          )\n",
              "          (14): LlamaDecoderLayer(\n",
              "            (self_attn): LlamaAttention(\n",
              "              (q_proj): Linear(in_features=720, out_features=960, bias=False)\n",
              "              (k_proj): Linear(in_features=720, out_features=320, bias=False)\n",
              "              (v_proj): Linear(in_features=720, out_features=320, bias=False)\n",
              "              (o_proj): Linear(in_features=960, out_features=720, bias=False)\n",
              "            )\n",
              "            (mlp): LlamaMLP(\n",
              "              (gate_proj): Linear(in_features=720, out_features=2048, bias=False)\n",
              "              (up_proj): Linear(in_features=720, out_features=2048, bias=False)\n",
              "              (down_proj): Linear(in_features=2048, out_features=720, bias=False)\n",
              "              (act_fn): SiLUActivation()\n",
              "            )\n",
              "            (input_layernorm): LlamaRMSNorm((720,), eps=1e-05)\n",
              "            (post_attention_layernorm): LlamaRMSNorm((720,), eps=1e-05)\n",
              "          )\n",
              "          (15): LlamaDecoderLayer(\n",
              "            (self_attn): LlamaAttention(\n",
              "              (q_proj): Linear(in_features=720, out_features=960, bias=False)\n",
              "              (k_proj): Linear(in_features=320, out_features=320, bias=False)\n",
              "              (v_proj): Linear(in_features=320, out_features=320, bias=False)\n",
              "              (o_proj): Linear(in_features=960, out_features=720, bias=False)\n",
              "            )\n",
              "            (mlp): LlamaMLP(\n",
              "              (gate_proj): Linear(in_features=720, out_features=2048, bias=False)\n",
              "              (up_proj): Linear(in_features=720, out_features=2048, bias=False)\n",
              "              (down_proj): Linear(in_features=2048, out_features=720, bias=False)\n",
              "              (act_fn): SiLUActivation()\n",
              "            )\n",
              "            (input_layernorm): LlamaRMSNorm((720,), eps=1e-05)\n",
              "            (post_attention_layernorm): LlamaRMSNorm((720,), eps=1e-05)\n",
              "          )\n",
              "        )\n",
              "        (norm): LlamaRMSNorm((720,), eps=1e-05)\n",
              "        (rotary_emb): LlamaRotaryEmbedding()\n",
              "      )\n",
              "    )\n",
              "    (state_proj): Linear(in_features=32, out_features=960, bias=True)\n",
              "    (action_in_proj): Linear(in_features=32, out_features=720, bias=True)\n",
              "    (action_out_proj): Linear(in_features=720, out_features=32, bias=True)\n",
              "    (action_time_mlp_in): Linear(in_features=1440, out_features=720, bias=True)\n",
              "    (action_time_mlp_out): Linear(in_features=720, out_features=720, bias=True)\n",
              "  )\n",
              ")"
            ]
          },
          "metadata": {},
          "execution_count": 8
        }
      ]
    },
    {
      "cell_type": "code",
      "source": [
        "torch.cuda.empty_cache()"
      ],
      "metadata": {
        "id": "UeLVvcJYzRQP"
      },
      "execution_count": null,
      "outputs": []
…
